…
  Loading fold 0: /home/kchao10/scr4_ssalzbe1/khchao/Yeast_ML/seq_experiment/exp_histone__chip_exo__rna_seq_no_norm_5215_tracks/16bp/self_supervised_unet_small_bert_drop/train/f0c0/train/model_best.h5
Model: "model_1"
__________________________________________________________________________________________________
 Layer (type)                Output Shape                 Param #   Connected to                  
==================================================================================================
 sequence (InputLayer)       [(None, 16384, 170)]         0         []                            
                                                                                                  
 stochastic_shift (Stochast  (None, 16384, 170)           0         ['sequence[0][0]']            
 icShift)                                                                                         
                                                                                                  
 conv1d (Conv1D)             (None, 16384, 96)            179616    ['stochastic_shift[0][0]']    
                                                                                                  
 batch_normalization (Batch  (None, 16384, 96)            384       ['conv1d[0][0]']              
 Normalization)                                                                                   
                                                                                                  
 tf.nn.gelu (TFOpLambda)     (None, 16384, 96)            0         ['batch_normalization[0][0]'] 
                                                                                                  
 conv1d_1 (Conv1D)           (None, 16384, 96)            46176     ['tf.nn.gelu[0][0]']          
                                                                                                  
 batch_normalization_1 (Bat  (None, 16384, 96)            384       ['conv1d_1[0][0]']            
 chNormalization)                                                                                 
                                                                                                  
 tf.nn.gelu_1 (TFOpLambda)   (None, 16384, 96)            0         ['batch_normalization_1[0][0]'
                                                                    ]                             
                                                                                                  
 conv1d_2 (Conv1D)           (None, 16384, 96)            9312      ['tf.nn.gelu_1[0][0]']        
                                                                                                  
 dropout (Dropout)           (None, 16384, 96)            0         ['conv1d_2[0][0]']            
                                                                                                  
 scale (Scale)               (None, 16384, 96)            96        ['dropout[0][0]']             
                                                                                                  
 add (Add)                   (None, 16384, 96)            0         ['conv1d_1[0][0]',            
                                                                     'scale[0][0]']               
                                                                                                  
 max_pooling1d (MaxPooling1  (None, 8192, 96)             0         ['add[0][0]']                 
 D)                                                                                               
                                                                                                  
 batch_normalization_2 (Bat  (None, 8192, 96)             384       ['max_pooling1d[0][0]']       
 chNormalization)                                                                                 
                                                                                                  
 tf.nn.gelu_2 (TFOpLambda)   (None, 8192, 96)             0         ['batch_normalization_2[0][0]'
                                                                    ]                             
                                                                                                  
 conv1d_3 (Conv1D)           (None, 8192, 128)            61568     ['tf.nn.gelu_2[0][0]']        
                                                                                                  
 batch_normalization_3 (Bat  (None, 8192, 128)            512       ['conv1d_3[0][0]']            
 chNormalization)                                                                                 
                                                                                                  
 tf.nn.gelu_3 (TFOpLambda)   (None, 8192, 128)            0         ['batch_normalization_3[0][0]'
                                                                    ]                             
                                                                                                  
 conv1d_4 (Conv1D)           (None, 8192, 128)            16512     ['tf.nn.gelu_3[0][0]']        
                                                                                                  
 dropout_1 (Dropout)         (None, 8192, 128)            0         ['conv1d_4[0][0]']            
                                                                                                  
 scale_1 (Scale)             (None, 8192, 128)            128       ['dropout_1[0][0]']           
                                                                                                  
 add_1 (Add)                 (None, 8192, 128)            0         ['conv1d_3[0][0]',            
                                                                     'scale_1[0][0]']             
                                                                                                  
 max_pooling1d_1 (MaxPoolin  (None, 4096, 128)            0         ['add_1[0][0]']               
 g1D)                                                                                             
                                                                                                  
 batch_normalization_4 (Bat  (None, 4096, 128)            512       ['max_pooling1d_1[0][0]']     
 chNormalization)                                                                                 
                                                                                                  
 tf.nn.gelu_4 (TFOpLambda)   (None, 4096, 128)            0         ['batch_normalization_4[0][0]'
                                                                    ]                             
                                                                                                  
 conv1d_5 (Conv1D)           (None, 4096, 160)            102560    ['tf.nn.gelu_4[0][0]']        
                                                                                                  
 batch_normalization_5 (Bat  (None, 4096, 160)            640       ['conv1d_5[0][0]']            
 chNormalization)                                                                                 
                                                                                                  
 tf.nn.gelu_5 (TFOpLambda)   (None, 4096, 160)            0         ['batch_normalization_5[0][0]'
                                                                    ]                             
                                                                                                  
 conv1d_6 (Conv1D)           (None, 4096, 160)            25760     ['tf.nn.gelu_5[0][0]']        
                                                                                                  
 dropout_2 (Dropout)         (None, 4096, 160)            0         ['conv1d_6[0][0]']            
                                                                                                  
 scale_2 (Scale)             (None, 4096, 160)            160       ['dropout_2[0][0]']           
                                                                                                  
 add_2 (Add)                 (None, 4096, 160)            0         ['conv1d_5[0][0]',            
                                                                     'scale_2[0][0]']             
                                                                                                  
 max_pooling1d_2 (MaxPoolin  (None, 2048, 160)            0         ['add_2[0][0]']               
 g1D)                                                                                             
                                                                                                  
 batch_normalization_6 (Bat  (None, 2048, 160)            640       ['max_pooling1d_2[0][0]']     
 chNormalization)                                                                                 
                                                                                                  
 tf.nn.gelu_6 (TFOpLambda)   (None, 2048, 160)            0         ['batch_normalization_6[0][0]'
                                                                    ]                             
                                                                                                  
 conv1d_7 (Conv1D)           (None, 2048, 192)            153792    ['tf.nn.gelu_6[0][0]']        
                                                                                                  
 batch_normalization_7 (Bat  (None, 2048, 192)            768       ['conv1d_7[0][0]']            
 chNormalization)                                                                                 
                                                                                                  
 tf.nn.gelu_7 (TFOpLambda)   (None, 2048, 192)            0         ['batch_normalization_7[0][0]'
                                                                    ]                             
                                                                                                  
 conv1d_8 (Conv1D)           (None, 2048, 192)            37056     ['tf.nn.gelu_7[0][0]']        
                                                                                                  
 dropout_3 (Dropout)         (None, 2048, 192)            0         ['conv1d_8[0][0]']            
                                                                                                  
 scale_3 (Scale)             (None, 2048, 192)            192       ['dropout_3[0][0]']           
                                                                                                  
 add_3 (Add)                 (None, 2048, 192)            0         ['conv1d_7[0][0]',            
                                                                     'scale_3[0][0]']             
                                                                                                  
 max_pooling1d_3 (MaxPoolin  (None, 1024, 192)            0         ['add_3[0][0]']               
 g1D)                                                                                             
                                                                                                  
 batch_normalization_8 (Bat  (None, 1024, 192)            768       ['max_pooling1d_3[0][0]']     
 chNormalization)                                                                                 
                                                                                                  
 tf.nn.gelu_8 (TFOpLambda)   (None, 1024, 192)            0         ['batch_normalization_8[0][0]'
                                                                    ]                             
                                                                                                  
 conv1d_9 (Conv1D)           (None, 1024, 256)            246016    ['tf.nn.gelu_8[0][0]']        
                                                                                                  
 batch_normalization_9 (Bat  (None, 1024, 256)            1024      ['conv1d_9[0][0]']            
 chNormalization)                                                                                 
                                                                                                  
 tf.nn.gelu_9 (TFOpLambda)   (None, 1024, 256)            0         ['batch_normalization_9[0][0]'
                                                                    ]                             
                                                                                                  
 conv1d_10 (Conv1D)          (None, 1024, 256)            65792     ['tf.nn.gelu_9[0][0]']        
                                                                                                  
 dropout_4 (Dropout)         (None, 1024, 256)            0         ['conv1d_10[0][0]']           
                                                                                                  
 scale_4 (Scale)             (None, 1024, 256)            256       ['dropout_4[0][0]']           
                                                                                                  
 add_4 (Add)                 (None, 1024, 256)            0         ['conv1d_9[0][0]',            
                                                                     'scale_4[0][0]']             
                                                                                                  
 max_pooling1d_4 (MaxPoolin  (None, 512, 256)             0         ['add_4[0][0]']               
 g1D)                                                                                             
                                                                                                  
 batch_normalization_10 (Ba  (None, 512, 256)             1024      ['max_pooling1d_4[0][0]']     
 tchNormalization)                                                                                
                                                                                                  
 tf.nn.gelu_10 (TFOpLambda)  (None, 512, 256)             0         ['batch_normalization_10[0][0]
                                                                    ']                            
                                                                                                  
 conv1d_11 (Conv1D)          (None, 512, 320)             409920    ['tf.nn.gelu_10[0][0]']       
                                                                                                  
 batch_normalization_11 (Ba  (None, 512, 320)             1280      ['conv1d_11[0][0]']           
 tchNormalization)                                                                                
                                                                                                  
 tf.nn.gelu_11 (TFOpLambda)  (None, 512, 320)             0         ['batch_normalization_11[0][0]
                                                                    ']                            
                                                                                                  
 conv1d_12 (Conv1D)          (None, 512, 320)             102720    ['tf.nn.gelu_11[0][0]']       
                                                                                                  
 dropout_5 (Dropout)         (None, 512, 320)             0         ['conv1d_12[0][0]']           
                                                                                                  
 scale_5 (Scale)             (None, 512, 320)             320       ['dropout_5[0][0]']           
                                                                                                  
 add_5 (Add)                 (None, 512, 320)             0         ['conv1d_11[0][0]',           
                                                                     'scale_5[0][0]']             
                                                                                                  
 max_pooling1d_5 (MaxPoolin  (None, 256, 320)             0         ['add_5[0][0]']               
 g1D)                                                                                             
                                                                                                  
 batch_normalization_12 (Ba  (None, 256, 320)             1280      ['max_pooling1d_5[0][0]']     
 tchNormalization)                                                                                
                                                                                                  
 tf.nn.gelu_12 (TFOpLambda)  (None, 256, 320)             0         ['batch_normalization_12[0][0]
                                                                    ']                            
                                                                                                  
 conv1d_13 (Conv1D)          (None, 256, 384)             614784    ['tf.nn.gelu_12[0][0]']       
                                                                                                  
 batch_normalization_13 (Ba  (None, 256, 384)             1536      ['conv1d_13[0][0]']           
 tchNormalization)                                                                                
                                                                                                  
 tf.nn.gelu_13 (TFOpLambda)  (None, 256, 384)             0         ['batch_normalization_13[0][0]
                                                                    ']                            
                                                                                                  
 conv1d_14 (Conv1D)          (None, 256, 384)             147840    ['tf.nn.gelu_13[0][0]']       
                                                                                                  
 dropout_6 (Dropout)         (None, 256, 384)             0         ['conv1d_14[0][0]']           
                                                                                                  
 scale_6 (Scale)             (None, 256, 384)             384       ['dropout_6[0][0]']           
                                                                                                  
 add_6 (Add)                 (None, 256, 384)             0         ['conv1d_13[0][0]',           
                                                                     'scale_6[0][0]']             
                                                                                                  
 max_pooling1d_6 (MaxPoolin  (None, 128, 384)             0         ['add_6[0][0]']               
 g1D)                                                                                             
                                                                                                  
 layer_normalization (Layer  (None, 128, 384)             768       ['max_pooling1d_6[0][0]']     
 Normalization)                                                                                   
                                                                                                  
 multihead_attention (Multi  (None, 128, 384)             500608    ['layer_normalization[0][0]'] 
 headAttention)                                                                                   
                                                                                                  
 dropout_7 (Dropout)         (None, 128, 384)             0         ['multihead_attention[0][0]'] 
                                                                                                  
 add_7 (Add)                 (None, 128, 384)             0         ['max_pooling1d_6[0][0]',     
                                                                     'dropout_7[0][0]']           
                                                                                                  
 layer_normalization_1 (Lay  (None, 128, 384)             768       ['add_7[0][0]']               
 erNormalization)                                                                                 
                                                                                                  
 dense (Dense)               (None, 128, 768)             295680    ['layer_normalization_1[0][0]'
                                                                    ]                             
                                                                                                  
 dropout_8 (Dropout)         (None, 128, 768)             0         ['dense[0][0]']               
                                                                                                  
 re_lu (ReLU)                (None, 128, 768)             0         ['dropout_8[0][0]']           
                                                                                                  
 dense_1 (Dense)             (None, 128, 384)             295296    ['re_lu[0][0]']               
                                                                                                  
 dropout_9 (Dropout)         (None, 128, 384)             0         ['dense_1[0][0]']             
                                                                                                  
 add_8 (Add)                 (None, 128, 384)             0         ['add_7[0][0]',               
                                                                     'dropout_9[0][0]']           
                                                                                                  
 layer_normalization_2 (Lay  (None, 128, 384)             768       ['add_8[0][0]']               
 erNormalization)                                                                                 
                                                                                                  
 multihead_attention_1 (Mul  (None, 128, 384)             500608    ['layer_normalization_2[0][0]'
 tiheadAttention)                                                   ]                             
                                                                                                  
 dropout_10 (Dropout)        (None, 128, 384)             0         ['multihead_attention_1[0][0]'
                                                                    ]                             
                                                                                                  
 add_9 (Add)                 (None, 128, 384)             0         ['add_8[0][0]',               
                                                                     'dropout_10[0][0]']          
                                                                                                  
 layer_normalization_3 (Lay  (None, 128, 384)             768       ['add_9[0][0]']               
 erNormalization)                                                                                 
                                                                                                  
 dense_2 (Dense)             (None, 128, 768)             295680    ['layer_normalization_3[0][0]'
                                                                    ]                             
                                                                                                  
 dropout_11 (Dropout)        (None, 128, 768)             0         ['dense_2[0][0]']             
                                                                                                  
 re_lu_1 (ReLU)              (None, 128, 768)             0         ['dropout_11[0][0]']          
                                                                                                  
 dense_3 (Dense)             (None, 128, 384)             295296    ['re_lu_1[0][0]']             
                                                                                                  
 dropout_12 (Dropout)        (None, 128, 384)             0         ['dense_3[0][0]']             
                                                                                                  
 add_10 (Add)                (None, 128, 384)             0         ['add_9[0][0]',               
                                                                     'dropout_12[0][0]']          
                                                                                                  
 layer_normalization_4 (Lay  (None, 128, 384)             768       ['add_10[0][0]']              
 erNormalization)                                                                                 
                                                                                                  
 multihead_attention_2 (Mul  (None, 128, 384)             500608    ['layer_normalization_4[0][0]'
 tiheadAttention)                                                   ]                             
                                                                                                  
 dropout_13 (Dropout)        (None, 128, 384)             0         ['multihead_attention_2[0][0]'
                                                                    ]                             
                                                                                                  
 add_11 (Add)                (None, 128, 384)             0         ['add_10[0][0]',              
                                                                     'dropout_13[0][0]']          
                                                                                                  
 layer_normalization_5 (Lay  (None, 128, 384)             768       ['add_11[0][0]']              
 erNormalization)                                                                                 
                                                                                                  
 dense_4 (Dense)             (None, 128, 768)             295680    ['layer_normalization_5[0][0]'
                                                                    ]                             
                                                                                                  
 dropout_14 (Dropout)        (None, 128, 768)             0         ['dense_4[0][0]']             
                                                                                                  
 re_lu_2 (ReLU)              (None, 128, 768)             0         ['dropout_14[0][0]']          
                                                                                                  
 dense_5 (Dense)             (None, 128, 384)             295296    ['re_lu_2[0][0]']             
                                                                                                  
 dropout_15 (Dropout)        (None, 128, 384)             0         ['dense_5[0][0]']             
                                                                                                  
 add_12 (Add)                (None, 128, 384)             0         ['add_11[0][0]',              
                                                                     'dropout_15[0][0]']          
                                                                                                  
 layer_normalization_6 (Lay  (None, 128, 384)             768       ['add_12[0][0]']              
 erNormalization)                                                                                 
                                                                                                  
 multihead_attention_3 (Mul  (None, 128, 384)             500608    ['layer_normalization_6[0][0]'
 tiheadAttention)                                                   ]                             
                                                                                                  
 dropout_16 (Dropout)        (None, 128, 384)             0         ['multihead_attention_3[0][0]'
                                                                    ]                             
                                                                                                  
 add_13 (Add)                (None, 128, 384)             0         ['add_12[0][0]',              
                                                                     'dropout_16[0][0]']          
                                                                                                  
 layer_normalization_7 (Lay  (None, 128, 384)             768       ['add_13[0][0]']              
 erNormalization)                                                                                 
                                                                                                  
 dense_6 (Dense)             (None, 128, 768)             295680    ['layer_normalization_7[0][0]'
                                                                    ]                             
                                                                                                  
 dropout_17 (Dropout)        (None, 128, 768)             0         ['dense_6[0][0]']             
                                                                                                  
 re_lu_3 (ReLU)              (None, 128, 768)             0         ['dropout_17[0][0]']          
                                                                                                  
 dense_7 (Dense)             (None, 128, 384)             295296    ['re_lu_3[0][0]']             
                                                                                                  
 dropout_18 (Dropout)        (None, 128, 384)             0         ['dense_7[0][0]']             
                                                                                                  
 add_14 (Add)                (None, 128, 384)             0         ['add_13[0][0]',              
                                                                     'dropout_18[0][0]']          
                                                                                                  
 layer_normalization_8 (Lay  (None, 128, 384)             768       ['add_14[0][0]']              
 erNormalization)                                                                                 
                                                                                                  
 multihead_attention_4 (Mul  (None, 128, 384)             500608    ['layer_normalization_8[0][0]'
 tiheadAttention)                                                   ]                             
                                                                                                  
 dropout_19 (Dropout)        (None, 128, 384)             0         ['multihead_attention_4[0][0]'
                                                                    ]                             
                                                                                                  
 add_15 (Add)                (None, 128, 384)             0         ['add_14[0][0]',              
                                                                     'dropout_19[0][0]']          
                                                                                                  
 layer_normalization_9 (Lay  (None, 128, 384)             768       ['add_15[0][0]']              
 erNormalization)                                                                                 
                                                                                                  
 dense_8 (Dense)             (None, 128, 768)             295680    ['layer_normalization_9[0][0]'
                                                                    ]                             
                                                                                                  
 dropout_20 (Dropout)        (None, 128, 768)             0         ['dense_8[0][0]']             
                                                                                                  
 re_lu_4 (ReLU)              (None, 128, 768)             0         ['dropout_20[0][0]']          
                                                                                                  
 dense_9 (Dense)             (None, 128, 384)             295296    ['re_lu_4[0][0]']             
                                                                                                  
 dropout_21 (Dropout)        (None, 128, 384)             0         ['dense_9[0][0]']             
                                                                                                  
 add_16 (Add)                (None, 128, 384)             0         ['add_15[0][0]',              
                                                                     'dropout_21[0][0]']          
                                                                                                  
 layer_normalization_10 (La  (None, 128, 384)             768       ['add_16[0][0]']              
 yerNormalization)                                                                                
                                                                                                  
 multihead_attention_5 (Mul  (None, 128, 384)             500608    ['layer_normalization_10[0][0]
 tiheadAttention)                                                   ']                            
                                                                                                  
 dropout_22 (Dropout)        (None, 128, 384)             0         ['multihead_attention_5[0][0]'
                                                                    ]                             
                                                                                                  
 add_17 (Add)                (None, 128, 384)             0         ['add_16[0][0]',              
                                                                     'dropout_22[0][0]']          
                                                                                                  
 layer_normalization_11 (La  (None, 128, 384)             768       ['add_17[0][0]']              
 yerNormalization)                                                                                
                                                                                                  
 dense_10 (Dense)            (None, 128, 768)             295680    ['layer_normalization_11[0][0]
                                                                    ']                            
                                                                                                  
 dropout_23 (Dropout)        (None, 128, 768)             0         ['dense_10[0][0]']            
                                                                                                  
 re_lu_5 (ReLU)              (None, 128, 768)             0         ['dropout_23[0][0]']          
                                                                                                  
 dense_11 (Dense)            (None, 128, 384)             295296    ['re_lu_5[0][0]']             
                                                                                                  
 dropout_24 (Dropout)        (None, 128, 384)             0         ['dense_11[0][0]']            
                                                                                                  
 add_18 (Add)                (None, 128, 384)             0         ['add_17[0][0]',              
                                                                     'dropout_24[0][0]']          
                                                                                                  
 layer_normalization_12 (La  (None, 128, 384)             768       ['add_18[0][0]']              
 yerNormalization)                                                                                
                                                                                                  
 multihead_attention_6 (Mul  (None, 128, 384)             500608    ['layer_normalization_12[0][0]
 tiheadAttention)                                                   ']                            
                                                                                                  
 dropout_25 (Dropout)        (None, 128, 384)             0         ['multihead_attention_6[0][0]'
                                                                    ]                             
                                                                                                  
 add_19 (Add)                (None, 128, 384)             0         ['add_18[0][0]',              
                                                                     'dropout_25[0][0]']          
                                                                                                  
 layer_normalization_13 (La  (None, 128, 384)             768       ['add_19[0][0]']              
 yerNormalization)                                                                                
                                                                                                  
 dense_12 (Dense)            (None, 128, 768)             295680    ['layer_normalization_13[0][0]
                                                                    ']                            
                                                                                                  
 dropout_26 (Dropout)        (None, 128, 768)             0         ['dense_12[0][0]']            
                                                                                                  
 re_lu_6 (ReLU)              (None, 128, 768)             0         ['dropout_26[0][0]']          
                                                                                                  
 dense_13 (Dense)            (None, 128, 384)             295296    ['re_lu_6[0][0]']             
                                                                                                  
 dropout_27 (Dropout)        (None, 128, 384)             0         ['dense_13[0][0]']            
                                                                                                  
 add_20 (Add)                (None, 128, 384)             0         ['add_19[0][0]',              
                                                                     'dropout_27[0][0]']          
                                                                                                  
 layer_normalization_14 (La  (None, 128, 384)             768       ['add_20[0][0]']              
 yerNormalization)                                                                                
                                                                                                  
 multihead_attention_7 (Mul  (None, 128, 384)             500608    ['layer_normalization_14[0][0]
 tiheadAttention)                                                   ']                            
                                                                                                  
 dropout_28 (Dropout)        (None, 128, 384)             0         ['multihead_attention_7[0][0]'
                                                                    ]                             
                                                                                                  
 add_21 (Add)                (None, 128, 384)             0         ['add_20[0][0]',              
                                                                     'dropout_28[0][0]']          
                                                                                                  
 layer_normalization_15 (La  (None, 128, 384)             768       ['add_21[0][0]']              
 yerNormalization)                                                                                
                                                                                                  
 dense_14 (Dense)            (None, 128, 768)             295680    ['layer_normalization_15[0][0]
                                                                    ']                            
                                                                                                  
 dropout_29 (Dropout)        (None, 128, 768)             0         ['dense_14[0][0]']            
                                                                                                  
 re_lu_7 (ReLU)              (None, 128, 768)             0         ['dropout_29[0][0]']          
                                                                                                  
 dense_15 (Dense)            (None, 128, 384)             295296    ['re_lu_7[0][0]']             
                                                                                                  
 dropout_30 (Dropout)        (None, 128, 384)             0         ['dense_15[0][0]']            
                                                                                                  
 add_22 (Add)                (None, 128, 384)             0         ['add_21[0][0]',              
                                                                     'dropout_30[0][0]']          
                                                                                                  
 batch_normalization_14 (Ba  (None, 128, 384)             1536      ['add_22[0][0]']              
 tchNormalization)                                                                                
                                                                                                  
 tf.nn.gelu_14 (TFOpLambda)  (None, 128, 384)             0         ['batch_normalization_14[0][0]
                                                                    ']                            
                                                                                                  
 batch_normalization_15 (Ba  (None, 256, 384)             1536      ['add_6[0][0]']               
 tchNormalization)                                                                                
                                                                                                  
 dense_16 (Dense)            (None, 128, 384)             147840    ['tf.nn.gelu_14[0][0]']       
                                                                                                  
 tf.nn.gelu_15 (TFOpLambda)  (None, 256, 384)             0         ['batch_normalization_15[0][0]
                                                                    ']                            
                                                                                                  
 up_sampling1d (UpSampling1  (None, 256, 384)             0         ['dense_16[0][0]']            
 D)                                                                                               
                                                                                                  
 dense_17 (Dense)            (None, 256, 384)             147840    ['tf.nn.gelu_15[0][0]']       
                                                                                                  
 add_23 (Add)                (None, 256, 384)             0         ['up_sampling1d[0][0]',       
                                                                     'dense_17[0][0]']            
                                                                                                  
 separable_conv1d (Separabl  (None, 256, 384)             148992    ['add_23[0][0]']              
 eConv1D)                                                                                         
                                                                                                  
 batch_normalization_16 (Ba  (None, 256, 384)             1536      ['separable_conv1d[0][0]']    
 tchNormalization)                                                                                
                                                                                                  
 tf.nn.gelu_16 (TFOpLambda)  (None, 256, 384)             0         ['batch_normalization_16[0][0]
                                                                    ']                            
                                                                                                  
 batch_normalization_17 (Ba  (None, 512, 320)             1280      ['add_5[0][0]']               
 tchNormalization)                                                                                
                                                                                                  
 dense_18 (Dense)            (None, 256, 384)             147840    ['tf.nn.gelu_16[0][0]']       
                                                                                                  
 tf.nn.gelu_17 (TFOpLambda)  (None, 512, 320)             0         ['batch_normalization_17[0][0]
                                                                    ']                            
                                                                                                  
 up_sampling1d_1 (UpSamplin  (None, 512, 384)             0         ['dense_18[0][0]']            
 g1D)                                                                                             
                                                                                                  
 dense_19 (Dense)            (None, 512, 384)             123264    ['tf.nn.gelu_17[0][0]']       
                                                                                                  
 add_24 (Add)                (None, 512, 384)             0         ['up_sampling1d_1[0][0]',     
                                                                     'dense_19[0][0]']            
                                                                                                  
 separable_conv1d_1 (Separa  (None, 512, 384)             148992    ['add_24[0][0]']              
 bleConv1D)                                                                                       
                                                                                                  
 batch_normalization_18 (Ba  (None, 512, 384)             1536      ['separable_conv1d_1[0][0]']  
 tchNormalization)                                                                                
                                                                                                  
 tf.nn.gelu_18 (TFOpLambda)  (None, 512, 384)             0         ['batch_normalization_18[0][0]
                                                                    ']                            
                                                                                                  
 batch_normalization_19 (Ba  (None, 1024, 256)            1024      ['add_4[0][0]']               
 tchNormalization)                                                                                
                                                                                                  
 dense_20 (Dense)            (None, 512, 384)             147840    ['tf.nn.gelu_18[0][0]']       
                                                                                                  
 tf.nn.gelu_19 (TFOpLambda)  (None, 1024, 256)            0         ['batch_normalization_19[0][0]
                                                                    ']                            
                                                                                                  
 up_sampling1d_2 (UpSamplin  (None, 1024, 384)            0         ['dense_20[0][0]']            
 g1D)                                                                                             
                                                                                                  
 dense_21 (Dense)            (None, 1024, 384)            98688     ['tf.nn.gelu_19[0][0]']       
                                                                                                  
 add_25 (Add)                (None, 1024, 384)            0         ['up_sampling1d_2[0][0]',     
                                                                     'dense_21[0][0]']            
                                                                                                  
 separable_conv1d_2 (Separa  (None, 1024, 384)            148992    ['add_25[0][0]']              
 bleConv1D)                                                                                       
                                                                                                  
 cropping1d (Cropping1D)     (None, 896, 384)             0         ['separable_conv1d_2[0][0]']  
                                                                                                  
 tf.nn.gelu_20 (TFOpLambda)  (None, 896, 384)             0         ['cropping1d[0][0]']          
                                                                                                  
 dense_22 (Dense)            (None, 896, 5215)            2007775   ['tf.nn.gelu_20[0][0]']       
                                                                                                  
==================================================================================================
Total params: 14253567 (54.37 MB)
Trainable params: 14243775 (54.34 MB)
Non-trainable params: 9792 (38.25 KB)
__________________________________________________________________________________________________
…
